weights/nbsvm_r.npy (npy, 440128 bytes, 1 tensors)

array f8 [1, 55000]
00000000: ebff 9d3f 856b cfbf 578d b3be 9398 cb3f
00000010: 728a 1cc5 05d3 f4bf 2e00 58f1 f975 edbf
00000020: 95e8 f7ed 4a59 b2bf 38ad a12e ef6d d53f
00000030: 3388 fe06 bcd9 b73f 5fcf 19d4 9c10 e4bf
00000040: 753f e3bf ee33 cd3f ab09 e489 8ad6 e0bf
00000050: 1903 f1b5 cac4 f93f d350 1446 962a e1bf
00000060: f275 36e8 aa24 943f 3d68 6faa 9808 cc3f
00000070: df56 a1b9 db6b c13f db5d ddb3 b2a0 f3bf
00000080: 41a7 84c0 26f8 e7bf 9b67 1ea3 2d31 cf3f
00000090: 79a8 8319 b9e1 dc3f 94a1 dd9c e9d6 f73f
000000a0: 85d8 746e c1c4 dc3f 1173 b589 c158 c6bf
000000b0: 4bb7 dc2c 58c9 d4bf 10ec ad9e c144 dbbf
000000c0: cc19 272f 6006 d9bf b739 b34a 6525 af3f
000000d0: 57bd 3348 4fcc debf b25c 491a 51d5 f4bf
000000e0: 881e 06b9 2b52 f7bf e901 0d30 e33e adbf
000000f0: e9d4 0058 b97a d13f 628d 8cb3 6548 a03f
00000100: db79 b13a 0211 b5bf c2dc 1bee 1d72 b43f
00000110: 94a6 eece ebaa c83f 91de 4585 a5a3 e33f
00000120: 9963 20d1 b214 ea3f 7140 dcbc e35b cf3f
00000130: 134d 93dc 4a05 d63f 7ffc dd55 00b6 d1bf
00000140: 1aae 2b25 fc19 e7bf 644a 8f7d 2368 e7bf
00000150: 513d 481e c973 d3bf 558d 99fe 92b4 c2bf
00000160: 68f2 b9ef 5cff ba3f 9f0c dbf5 2524 e13f
00000170: a0fc f11a 50bf ef3f 7824 4c54 73c9 cbbf
00000180: 5cf6 0529 1bff e0bf 3b7c 6fc3 5114 fa3f
00000190: 88f5 cc92 9d8a d8bf b4d2 d27f a5b6 c13f
000001a0: b4b8 e60c 04e8 dabf 4b26 7262 de6c fabf
000001b0: c1f5 a00a 045e eabf 01fa d460 3817 eabf
000001c0: 3a15 6fe2 4b69 cbbf dae4 e8d2 c59a fa3f
000001d0: 84a2 839e 3622 a63f 6a71 a976 59b6 f6bf
000001e0: eb17 7b72 db1e f1bf 9ca2 a856 e010 cb3f
000001f0: fa9c b1a2 bad0 b13f e00f 81f0 87a2 e0bf
00000200: e033 3552 81a5 d83f cc09 e6ab cf27 cebf
00000210: ce71 55b6 6c7f e1bf f444 066a ce2a babf
00000220: 03d2 c549 acf9 d73f d242 b84c 0ec5 e6bf
00000230: ca37 0ebc fc26 c4bf 46d9 9027 f967 c6bf
00000240: 2f28 71ae bf36 d7bf 89dc 4b45 8dad e9bf
00000250: ac98 1b71 9662 f1bf 3504 90b8 b8d1 e6bf
00000260: 0a67 4a3e 2962 c53f 9af2 3df1 59ed e5bf
00000270: 6ae2 41a5 da0b cb3f 798a adc6 8d71 cbbf
00000280: 860b 21d8 c3c2 c0bf 181c aeb5 9855 d5bf
00000290: f2dd 1859 333d 783f e257 31ef 6a8b ea3f
000002a0: 2716 0114 b4ed eebf 77cf a39b 99e1 cdbf
000002b0: b463 41c4 5f7c f3bf 9eda 442c 32a0 c0bf
000002c0: eb4f 01ff 7639 babf ad2b dc89 bf9b db3f
000002d0: 472a b454 b153 bfbf d0a9 4255 8fde c83f
000002e0: c4ff d971 cf2f e23f 0b15 0e3d e683 b1bf
000002f0: 90b9 af80 8d9d f4bf 20f9 2e4c bff9 e1bf
00000300: 4f5c b930 0c06 f03f be3b f4ce 78c0 da3f
00000310: d3bd 814e e4f1 dbbf 08bc f876 34cf d13f
00000320: c351 837a ace7 d93f e4ab 85c5 8e8c e4bf
00000330: 048a 8ffa 94f1 9dbf 8741 66c6 86cc d0bf
00000340: d5b9 d42c c04b e2bf 3095 6e1d 680a c3bf
00000350: 42d5 b324 8c5f f2bf 98f7 f427 2619 e33f
00000360: 640e 3591 47ed e53f 4219 ba31 d2d5 eabf
00000370: 16a0 42d6 4b7b e7bf b29a e61c ff8a d3bf
00000380: 3be3 e070 3a5e c63f 2641 0942 9739 d93f
00000390: 36c5 6a0d 0e64 d83f 0a3a 0348 3352 ea3f
000003a0: dbee 3fdc f7a1 d1bf 2103 bb9b 9471 e0bf
000003b0: db6e eb58 8249 bdbf f592 eaa2 f850 e8bf
000003c0: eaf1 ae35 30d8 e7bf 1b40 bf18 d41c c6bf
000003d0: 1d37 d560 2d18 e83f 804a 3799 a761 e1bf
000003e0: ba07 9da6 1302 d13f b7ee eed6 1f40 f03f
000003f0: b6f4 4fe4 638a dcbf d80d 866f e0df e9bf
00000400: 284d 37b8 408e dabf f851 5ff5 686d c1bf
00000410: 09bc 2c37 c8f6 d83f 3f9f 851c 20ca c53f
00000420: 40f6 1717 35f3 e4bf 7d2f 9154 c1e1 d53f
00000430: 2eec d5a6 c53b cc3f d0e5 d997 5736 e5bf
00000440: a39e 2b56 4513 e8bf 2d6c 1520 8fdd e83f
00000450: 91bd 702d b161 ef3f 0c85 9bb9 a4e6 e93f
00000460: b066 294f 4e73 d73f e17a 195f 7c75 cc3f
00000470: 4042 9a0f 76c2 f93f c1b1 544a daff ea3f
00000480: 9d6e daaf 8c60 f93f 5b20 d050 dbdc e13f
00000490: ab98 fd90 c241 eb3f 95eb 1763 d9f4 b23f
000004a0: 13df af46 ad6d dbbf 3e90 e146 e76c da3f
000004b0: d9ab 63ec a907 9abf c40d 47e9 c399 d7bf
000004c0: 99b5 0d5b 8740 cf3f ec55 79ac ab7b e03f
000004d0: 09fe 8d89 f3a7 0740 7ae2 c5ad 11b2 d8bf
000004e0: ebe6 7b7d c200 f0bf 66ba 2449 bf14 e83f
000004f0: f0a8 5294 c268 b9bf 1afb c44b 1f67 b03f
00000500: a19c c348 4f9a c23f cf32 335f ca87 f93f
00000510: 4d44 e6f0 f707 e93f a782 6a2d 9c57 e53f
00000520: ec2a 60e7 f475 db3f 9f3c b5f4 fb89 e4bf
00000530: be19 7b8a 9058 d0bf c82d d1d6 e494 f13f
00000540: 150a ac99 ef79 e63f 1a4d b2a0 754a e23f
00000550: 4029 4111 c00a f43f 90af 8873 8573 e0bf
00000560: 0528 19cc b123 e73f f260 db64 caf6 e43f
00000570: e8e0 0805 ffd6 bf3f aa88 14af ef21 f23f
00000580: 139c b295 01ed e13f 9c07 b071 5a77 d2bf
00000590: ccf7 c6cc eaa8 ba3f 48fa 50a3 2264 cebf
000005a0: a930 62fd f29d a1bf 5b3c 93a5 083a f1bf
000005b0: d47b 7978 800d a83f 1143 b7ac eb2b b9bf
000005c0: af8d c186 40ce d3bf 0859 44e9 60d2 e6bf
000005d0: 4b53 70c3 286b a53f a77f 9c29 771a bebf
000005e0: c7eb acc0 509f dfbf bd8e 05b7 267e e4bf
000005f0: d639 3486 d1dd e63f 9143 c411 8474 f1bf
00000600: 46af 5b91 cb6e c4bf 5d5f 03a5 25f3 c03f
00000610: 0cc9 dca0 6744 e63f c512 13aa 5ae7 f9bf
00000620: 5a45 45fd 3564 d9bf 1284 e17b af69 ee3f
00000630: 471a 49f1 2e3c f43f 438e adba 8820 ec3f
00000640: dea7 0af8 0d20 f53f 2ab6 b93a 169c e53f
00000650: 9fc9 6373 2d79 c73f bd22 a1f9 d005 bd3f
00000660: eefb 080c f45b c8bf 17d5 7ebb 5dd2 b73f
00000670: a6fa 4243 6472 d33f 132d 5265 0603 db3f
00000680: 54bc 793b 53fa f33f 6e2f 989d 19fa c1bf
00000690: 7d5a 07a5 1e78 e0bf 2710 b7ce a9c6 d53f
000006a0: 7576 e8b0 f6a4 ec3f c813 cd8a a3d3 c6bf
000006b0: 1746 7379 c9b0 c9bf 7cf5 0ee0 c553 d9bf
000006c0: 4a6b d0d8 a842 f53f 7abc ecc7 114f c53f
000006d0: de7a e27a 3b85 d13f b842 edb6 4e6b c4bf
000006e0: 7154 3fc7 8ffb bbbf 256d 0abf f705 e7bf
000006f0: fe2d d13c eea6 d43f 827d fbc4 2d4d cb3f
00000700: 796f f10b 6f08 f23f e8b5 b3dc 9aa0 b6bf
00000710: 0d7f 3ffe 246a e13f 8cb4 d606 cb07 f5bf
00000720: 0482 8f01 1c79 e53f 1023 cd9f 9725 eabf
00000730: 9140 d4b8 f9e5 d93f 1362 57ff 0ffc 00c0
00000740: 5405 d7c8 6f02 d7bf eb75 eab3 2b4d e73f
00000750: 58dc 94f2 6d6c e23f 3979 ebec fb14 a6bf
00000760: adb4 2558 a02d dfbf 7f67 075c 41a7 f5bf
00000770: ba55 74aa 1767 c93f 6b22 b4f5 958c e83f
00000780: dca2 23ea 6628 c53f 7044 3e78 42a6 e1bf
00000790: 51c0 8d8b 1f51 c5bf 3eeb 2bc1 0d48 da3f
000007a0: e041 b8e8 3ebb f4bf bf82 dab8 e60d fabf
000007b0: a291 2e80 2e84 f0bf 6ab5 5bba fa9a d13f
000007c0: 6f84 6f3b bacc ec3f 48e5 3823 9f9e e43f
000007d0: de74 1f64 e3bd e23f c00e a088 66e3 e4bf
000007e0: 1bdd 0dfb 88a2 f3bf 7768 967d 8c12 f73f
000007f0: 76be 8f30 6f69 d83f 181a 1b4a 7372 b9bf
-0.2454687653189461 0.21559378444281194 -1.3015191745440942 -0.9206514085526629 -0.07167499837660991 0.3348348575006699 0.09316611452825967 -0.6270279066652441
0.22814735764995545 -0.5261891072444106 1.6105448824966457 -0.5364486092317072 0.01967112581552572 0.21901233980207904 0.13610407413459932 -1.226732924076592
-0.7490419159050604 0.24368830170425046 0.4512770413554175 1.4899688842361671 0.4495090082813323 -0.17458361839353434 -0.3247890890223643 -0.4260715531924584
-0.3910141430355025 0.06083218132845352 -0.481220074186202 -1.3020792986697356 -1.4575612285133577 -0.05712041818197006 0.273115478459046 0.03180234734306954
-0.08229078228894286 0.07986628592685732 0.1927160988246227 0.6137263873087752 0.8150266727926577 0.2449917480630606 0.3440730241829481 -0.27673347840750034
-0.7219219900120522 -0.731462235673757 -0.3039419933056325 -0.146135687176051 0.10545903065389839 0.5356626321667085 0.992103626849616 -0.2170852815254738
-0.5311408807026043 1.6299607881735614 -0.3834604199981517 0.13838642827399428 -0.4204111219395472 -1.6515792699377865 -0.8239765365212223 -0.8153345004319023
-0.2141508918413509 1.6627863157903477 0.04322977719295287 -1.419518912814136 -1.0700334998996321 0.2114525244844757 0.06959120246903075 -0.519840211615243
0.3851016333399553 -0.23558994191632932 -0.546804767723694 -0.1022156723831989 0.3746138306080697 -0.7115546701844215 -0.15743979627990107 -0.17504801208424164
-0.36271659884789903 -0.8024355271762867 -1.0865692537568448 -0.7131007771241743 0.16705813924345875 -0.6852235519177896 0.21129925793845256 -0.21440288735455562
-0.130943756610659 -0.333349397108067 0.005917740419639982 0.8295187637074799 -0.9665165320117851 -0.2334472665748952 -1.217864767668499 -0.12988879357881883
-0.10243934369765355 0.43138111555952713 -0.12237079923594606 0.19429198897462507 0.568336222044302 -0.06841887465096279 -1.2884650255979047 -0.5617367256125227
1.0014764693530827 0.4179975529704584 -0.4366389052074428 0.2782717859108179 0.4047652431884467 -0.642157922540147 -0.02924187449742456 -0.2624833047384744
-0.5717469096760462 -0.1487550872526895 -1.1483270105066627 0.5968199520500432 0.6852147899703138 -0.838601204989381 -0.7338008103151903 -0.30535867521613647
0.17475061904567632 0.3941400666126519 0.3811068659807292 0.8225342184539965 -0.2755107546688415 -0.5138648072826052 -0.11440291090860503 -0.7598841840704994
-0.7451401756766789 -0.17275477608063813 0.7529513255373989 -0.5431707375049228 0.2657517554363228 1.0156553645928577 -0.44594666763425594 -0.8085786989399208
-0.4149324225411015 -0.1361514280421401 0.3900623835388051 0.17023087876008877 -0.6546884013220691 0.34190400370129465 0.2205740990283131 -0.6628835645525957
-0.7523523982062738 0.7770457865366375 0.9806753051288287 0.8094047188898528 0.3664127133430197 0.22233538287669943 1.6099758729434512 0.8437320186399618
1.5860716695087043 0.5582100466135772 0.8517773467872493 0.07404860181115532 -0.42856914427783116 0.4128969375799477 -0.025419859936771736 -0.3687600877858268
0.2441567606542037 0.5150965088493513 2.9570074793298358 -0.3858684727670504 -1.0001854802816819 0.7525326183875449 -0.09925476189770044 0.06407352065887686
0.14533415844855305 1.5956519812345282 0.7822227196758235 0.6669445883781763 0.42907450289992144 -0.6418437747432967 -0.25540555499574313 1.0988510505002171
0.7023847581297696 0.5715892923930455 1.2526245759969044 -0.5141017204782532 0.7231072412771488 0.655125805841662 0.12437433121602093 1.13328522101123
0.5601814197333418 -0.2885347471457125 0.10413997172778905 -0.23743088697843207 -0.03440818160115217 -1.0766684024599928 0.04697801085125489 -0.09832642523475622
-0.30946362647793085 -0.7131809764858028 0.041833185059806675 -0.11759133115674435 -0.4940988427730954 -0.6403993200915107 0.714577448003008 -1.0909462636957168
-0.1596312007671889 0.13242025906833535 0.6958501951069436 -1.6189829486403806 -0.39674138768630984 0.950401060061383 1.2646932053773001 0.8789714475682974
1.3203258217931686 0.6753035685521287 0.18338554510371538 0.11336999983280811 -0.19030619228030282 0.09305368258977285 0.3038569123126912 0.42205963034275945
1.2486145327818763 -0.14044494814913427 -0.5146630500046993 0.3402504461957982 0.8951371627078532 -0.1783337047328628 -0.20070761137189727 -0.39573809509950997
1.3287743062307578 0.16647550832701424 0.27375685692270035 -0.1595247643658888 -0.10930727590978663 -0.7194784861816613 0.3226886361996718 0.21329280966072522
1.1270590273406624 -0.08838813675148283 0.5442070928365595 -1.314402605737345 0.671033862159732 -0.8170889016265352 0.40466158914296907 -2.1230773876707274
-0.35952372182153636 0.72817025317971 0.5757360208434745 -0.043128845854641225 -0.4871598110974656 -1.3533338160400203 0.1984586317345654 0.7671613501452844
0.16529547150209722 -0.5515453670979138 -0.166538184300864 0.4106478105965613 -1.2957142916312634 -1.628393861850938 -1.0322709090333793 0.2750841922669084
0.8999911461688849 0.6443629920897047 0.5856797175908033 -0.6527588528119495 -1.2271814162066395 1.4420285135043096 0.38143520109495144 -0.09940262374139086
